data/meta/data_nn.pth (torch, 32840 bytes, 6 tensors)

l1.weight f4 [8, 529]
0	0xbfd96cb9	-1.6986305
1	0xbf7a4a03	-0.9776918
2	0x3f204680	0.62607574
3	0x3f6bcf42	0.92113125
4	0x3e6954cc	0.22786254
5	0x3fe5f98c	1.7966781
6	0xbf09351b	-0.5359666
7	0xbeddb6ab	-0.43303427
8	0xbff40851	-1.9065038
9	0xbc27aa99	-0.010233545
10	0x40862929	4.1925244
11	0xbf1fd889	-0.6243978
12	0x3fbb84d2	1.4649909
13	0x40165e1e	2.3494945
14	0x3dcb3bd1	0.099235184
15	0x3d9cf6bd	0.07664249
16	0xc014b47e	-2.3235164
17	0xbea1b15a	-0.3158062
18	0xbf5b26da	-0.8560616
19	0x3eb81ed2	0.35961014
20	0x402c603b	2.6933734
21	0x3c17af04	0.009258036
22	0x3b711f90	0.0036792494
23	0x3e9d8bba	0.30770665
24	0x3f310ecd	0.6916321
25	0xbebb3a22	-0.3656779
26	0x401992d0	2.3995857
27	0xbeadb059	-0.33923605
28	0x404c8c15	3.19605
29	0xbd7a83c5	-0.06116082
30	0x3ff8c73c	1.9435802
31	0x3fa08de5	1.2543303
32	0xbed25ca8	-0.41086316
33	0x3f2ef8f3	0.68348616
34	0x3e935e5f	0.28782937
35	0x3f4e78bc	0.80652976
36	0x40589726	3.3842254
37	0x40744784	3.816865
38	0xbf260686	-0.64853704
39	0xbfb7c7f7	-1.43579
40	0xbedcc348	-0.43117738
41	0xbf3dbb29	-0.7411371
42	0x3d4b708e	0.049667887
43	0xbd1c9f47	-0.038237836
44	0xbdc092f5	-0.0940303
45	0xbe1e83ad	-0.15479918
46	0xbf8748c9	-1.0569087
47	0x3ed3f1a6	0.413953
48	0x3fb333ce	1.4000185
49	0x3bdf3af8	0.0068124495
50	0xbe8f99cb	-0.28047022
51	0xbe265234	-0.16242296
52	0xbf2f278c	-0.6841972
53	0xbf50bf63	-0.8154203
54	0xbe92e778	-0.28692222
55	0x3f663599	0.89925534
56	0x3f10bcaa	0.5653788
57	0x3f0645bb	0.5245015
58	0x3f46d050	0.7766161
59	0x3faa56e0	1.3307762
60	0x3fb6a04f	1.4267672
61	0x4023e819	2.561041
62	0x3fc076c2	1.5036242
63	0xbf6a0018	-0.91406393
64	0x3f806bc9	1.0032893
65	0x3f9f9434	1.2467103
66	0x3f6bbb08	0.9208226
67	0xbfabaf37	-1.3412846
68	0x3fab3106	1.3374336
69	0x3dbe2f12	0.09286322
70	0xbea3a05e	-0.31958288
71	0xbe951cff	-0.29123685
72	0x3fb37193	1.4019035
73	0xbffa223b	-1.9541696
74	0x3fe76f12	1.8080771
75	0xbfb640cc	-1.4238524
76	0x40021ea5	2.0331204
77	0xbf0da9c1	-0.5533715
78	0xbeb318d1	-0.3497987
79	0x3f3359fe	0.7005919
80	0x4077e8c8	3.8735828
81	0x4027b098	2.6201534
82	0xbefbe12e	-0.49195236
83	0x3fee40ad	1.8613487
84	0x3fb324d2	1.3995612
85	0xbe8df9c0	-0.27729607
86	0xbeb18977	-0.3467519
87	0xbfcbb59c	-1.5914798
88	0xbfc055e5	-1.5026213
89	0xbeac78f5	-0.33686033
90	0x4021e879	2.529814
91	0xbe347e2b	-0.17626254
92	0xbf0cfe55	-0.5507558
93	0x3f5dc76a	0.86632407
94	0xbffd49bc	-1.9788127
95	0x40072e03	2.1121833
96	0xbe49a51b	-0.19691889
97	0xbf842d34	-1.0326295
98	0x3fe82ede	1.8139303
99	0xbe799d02	-0.243763
100	0x3fe1d7ac	1.7643943
101	0xbf02744c	-0.50958705
102	0x40082b6a	2.1276498
103	0x3dbc9051	0.09207214
104	0xbe8fcf29	-0.28087738
105	0xbf4cf15e	-0.800558
106	0x4013b1f8	2.3077374
107	0x404cfba6	3.2028594
108	0x3ff5c047	1.9199303
109	0x40066a75	2.1002476
110	0x3f4b0030	0.7929716
111	0xbf066b7e	-0.5250777
112	0x3fc0e44e	1.5069673
113	0x3f461722	0.7737905
114	0x3fb0f5a4	1.3824964
115	0xbefe2f89	-0.4964564
116	0x3e0a3a7a	0.1349887
117	0xc030adbe	-2.7606044
118	0x3e163fc2	0.14672759
119	0xbfba9b76	-1.4578693
120	0xbd403048	-0.046921045
121	0x400f4f1c	2.2392035
122	0x3fce9a30	1.6140804
123	0x3f61b52b	0.88167065
124	0xbde36088	-0.11102396
125	0x3f77b343	0.96757907
126	0x3f6f8993	0.93569297
127	0xbfeb7f8e	-1.8398302
128	0x3f883f24	1.0644269
129	0x3f85c5a5	1.0450941
130	0xbf881a40	-1.0633011
131	0xbe8d39d2	-0.27583176
132	0x3f38e157	0.7221884
133	0x3df52355	0.1196963
134	0x3f0c641c	0.54840255
135	0x3f413372	0.75469124
136	0xbf0ce7d6	-0.55041254
137	0x401c84fb	2.4456165
138	0xbef3cd5e	-0.4761762
139	0x401203f7	2.281492
140	0xbe938981	-0.28815845
141	0x3f8d0977	1.1018513
142	0x3fba97a7	1.4577531
143	0x3d1759c3	0.036950838
144	0x3ffe1915	1.9851404
145	0xc0311726	-2.7670379
146	0xbe3ffa97	-0.18747936
147	0x3f427f11	0.7597514
148	0xbe88ea36	-0.2674119
149	0xbd863f2b	-0.06555017
150	0x3e50d729	0.20394577
151	0xc09ba905	-4.8643823
152	0x3f332e6f	0.6999273
153	0x40071077	2.11038
154	0x3e9af85d	0.3026761
155	0xbf860ab9	-1.0472022
156	0xbda41ad6	-0.08012931
157	0x40139256	2.3058066
158	0x3f76943b	0.9631993
159	0xbed72326	-0.42019004
160	0x3ee1a8a6	0.4407398
161	0x3ff1a408	1.8878183
162	0xbf895d18	-1.0731535
163	0xbe7ab66f	-0.24483655
164	0x3ef63701	0.4808884
165	0x3f21547c	0.6301954
166	0x403ab330	2.9171867
167	0x404f16b6	3.2357612
168	0xbf937754	-1.1520791
169	0x3f854b1f	1.041355
170	0xbeb73624	-0.35783494
171	0xbf97e13f	-1.1865615
172	0x400e99d8	2.2281399
173	0xbfd2b896	-1.6462581
174	0xbfb90f7c	-1.445785
175	0x3e9d1b88	0.30685067
176	0xbeb3a754	-0.350886
177	0x40318189	2.7735312
178	0xc0019a4e	-2.025043
179	0xbd171383	-0.036883842
180	0x3f854a49	1.0413295
181	0x3fb2b9a4	1.3962903
182	0x3f329d3c	0.6977117
183	0x404b3b0c	3.175479
184	0xbf85b458	-1.0445662
185	0xbeb05fdf	-0.34448144
186	0x4011265d	2.2679665
187	0x3faeab30	1.3645992
188	0xbed03614	-0.40666258
189	0xbeab5b11	-0.33467916
190	0xbde4c54e	-0.111704454
191	0x3f467851	0.7752734
192	0x3f7d970a	0.9905859
193	0x3f333cf4	0.7001488
194	0xbe36545e	-0.17805621
195	0x3eecd169	0.46253517
196	0xbf0e2dcb	-0.55538625
197	0x3ec1d00a	0.37854034
198	0x3f186f78	0.5954509
199	0x3d63b4db	0.0555924
200	0xbf0e561a	-0.5560013
201	0xbf14cb9f	-0.581232
202	0x3d92ff40	0.07177591
203	0x3fd5b6bb	1.669639
204	0x3b1e816c	0.0024186028
205	0xbd26a61b	-0.040685754
206	0x3f541bb2	0.8285476
207	0x3ff9b0b0	1.9507046
208	0xbea4d3ac	-0.32192743
209	0x4010c48b	2.261996
210	0xbeaa03c0	-0.33205986
211	0xbebc0991	-0.3672605
212	0xbfe2d326	-1.7720687
213	0xbfe5ada4	-1.7943616
214	0x401121a1	2.2676775
215	0xbf198bca	-0.59978926
216	0xbeaadbfb	-0.33370957
217	0x3ee813ad	0.4532751
218	0x3e3f1284	0.18659407
219	0xbeac1fc3	-0.33617982
220	0x3e742f68	0.23846209
221	0xbc85d9bc	-0.016339175
222	0xbedb7a3d	-0.42866698
223	0x3ff6bc9e	1.9276311
224	0xbedaf687	-0.4276621
225	0x3e1fae96	0.15593943
226	0x3f973c2a	1.1815236
227	0x3f870d44	1.0550923
228	0xbf6b249c	-0.91852736
229	0xbfbaf34e	-1.4605501
230	0x3f873fcf	1.0566348
231	0x403adb54	2.9196367
232	0x3daa0f44	0.08303693
233	0x3ff9a71e	1.9504125
234	0xbf82cfcd	-1.0219666
235	0xbefc078c	-0.49224508
236	0xbd6c4f13	-0.0576926
237	0x3fe8ac12	1.8177512
238	0xbdf28363	-0.11841466
239	0x40370890	2.8598976
240	0x3ff09dde	1.8798177
241	0x40280915	2.6255543
242	0xbebcdbbf	-0.36886403
243	0xbe95935e	-0.29213995
244	0xbf4a14d8	-0.78938055
245	0xbf9ecb14	-1.2405725
246	0x3fb1a11f	1.3877295
247	0xc00187ff	-2.0239255
248	0x4003e6d6	2.060964
249	0xbeaea340	-0.34108925
250	0x3c6e4fad	0.014545363
251	0xbf48cdfe	-0.7843932
252	0x4008a64e	2.1351504
253	0xbf4367c9	-0.7633024
254	0xbea696f4	-0.32537043
255	0x3f46f3a1	0.777155

l1.bias f4 [8]
0	0x3e64bc94	0.22337562
1	0x3f0c87d9	0.5489479
2	0x3f9571eb	1.167539
3	0x3f824f47	1.0180444
4	0x40005ab2	2.0055356
5	0x3ee59020	0.4483652
6	0x3f683f5d	0.90721685
7	0x3e4aa334	0.1978882

l2.weight f4 [8, 8]
0	0x3fac1944	1.344521
1	0x3ff46359	1.9092818
2	0xbecf6f24	-0.4051448
3	0xbe233008	-0.15936291
4	0x4016076c	2.344203
5	0x3fd24319	1.6426727
6	0x4035052f	2.8284414
7	0xc028d7d4	-2.638173
8	0xbf1de530	-0.6167784
9	0x40024f24	2.0360804
10	0x3fb360ef	1.4013957
11	0x3f372e92	0.71555436
12	0xbe6b1251	-0.22956206
13	0xbcb53d04	-0.022123821
14	0xc003d98e	-2.0601535
15	0x3f7b479a	0.9815613
16	0xbf608d8b	-0.8771598
17	0xbec4c1bc	-0.38429058
18	0x3f3216bb	0.69565934
19	0xbd80d921	-0.06291414
20	0xbed594a4	-0.41714966
21	0x40008fa4	2.0087671
22	0xbfbc1739	-1.4694587
23	0x40044c99	2.0671751
24	0x3ff158fc	1.8855281
25	0x3fe25f93	1.7685417
26	0xbf2b8df3	-0.6701347
27	0x3fc83dec	1.5643897
28	0xbed4bcb7	-0.41550228
29	0xbefb7b1b	-0.4911736
30	0xbf5529e7	-0.8326706
31	0x3f60936c	0.8772495
32	0xbe975154	-0.29554236
33	0xbf9eb516	-1.2399013
34	0x40251b52	2.5797925
35	0x3fe3558e	1.7760484
36	0x4039c673	2.9027374
37	0xc0338d82	-2.805512
38	0xbf7d44be	-0.9893302
39	0xbee06783	-0.43828973
40	0xc00e121c	-2.2198553
41	0x3f43393a	0.76259196
42	0xbfd31736	-1.6491458
43	0x40516774	3.2719393
44	0x4008f158	2.1397305
45	0x400cf068	2.2021732
46	0x3fb028ae	1.3762414
47	0x4022a153	2.5410964
48	0x4068196d	3.6265519
49	0x3ff5b00b	1.9194349
50	0x3fab7a83	1.3396763
51	0xbfd194fc	-1.6373591
52	0xbead8e95	-0.33897844
53	0x3ef0b8f9	0.47016123
54	0x3de03611	0.10947812
55	0xbeb4797d	-0.35248938
56	0xbf9c908e	-1.2231615
57	0xbfb6a9bf	-1.4270552
58	0x3f9ce0ca	1.22561
59	0xbf80051c	-1.0001559
60	0xbf37ee01	-0.7184754
61	0x3f9a766c	1.206739
62	0x4019b5f4	2.4017305
63	0x3faaa12a	1.3330433

l2.bias f4 [8]
0	0x3f2bfcb0	0.67182446
1	0xbf69b9ad	-0.91298944
2	0x3e7304af	0.23732255
3	0x3dac1e1e	0.08404182
4	0x3fda696a	1.706342
5	0x3ef4f16f	0.4784045
6	0x3dd5a771	0.104323275
7	0x3d408c7a	0.04700897

l3.weight f4 [100, 8]
0	0xbe950595	-0.2910582
1	0xbfa76f07	-1.3080758
2	0xc076b9c8	-3.8550892
3	0xbf5c2b8d	-0.86003953
4	0xc000a0b8	-2.0098095
5	0x3e1402db	0.14454214
6	0xbfbaad50	-1.4584141
7	0xbe8edb4d	-0.27901688
8	0xbee4e7c8	-0.44708085
9	0xc1248805	-10.283208
10	0xc1117e83	-9.093387
11	0xc008acef	-2.135555
12	0x3faa3ef7	1.3300465
13	0xc032615f	-2.787193
14	0xbf8ad50b	-1.0846266
15	0x3fa2af65	1.2709776
16	0xbe8281c6	-0.25489634
17	0xc0d96f3f	-6.79483
18	0xbf1d17ef	-0.61364645
19	0x3e632c9f	0.2218499
20	0xbfe3b32f	-1.7789057
21	0x3efd1e87	0.49437353
22	0xc0170763	-2.3598258
23	0xc08d8eb1	-4.4236684
24	0xbfc7bb69	-1.5604068
25	0x3e7a06c4	0.24416643
26	0x3e8c17f7	0.27362034
27	0xbf6df10e	-0.92945945
28	0xbfad4c61	-1.3538934
29	0xbdf96a00	-0.12178421
30	0xc0a8c92f	-5.2745585
31	0xc071e496	-3.7795768
32	0x3eeda32c	0.46413553
33	0xc16f9d25	-14.975865
34	0xc0061a47	-2.0953538
35	0xbfbb3e7c	-1.4628444
36	0x3f0b8137	0.5449404
37	0xbcba3b2a	-0.02273329
38	0xc127e44c	-10.493237
39	0xbed3e2d7	-0.41384003
40	0xc0e1a54c	-7.051428
41	0x3e875310	0.2643056
42	0x3f29245b	0.660711
43	0xbf59b01b	-0.8503434
44	0xc0b37b71	-5.6088185
45	0xbfc894a2	-1.5670359
46	0x3f01994e	0.5062455
47	0xbf635075	-0.8879464
48	0xc018ac7d	-2.3855278
49	0xbf95e809	-1.1711437
50	0xc01814b6	-2.376264
51	0x3d1b121d	0.03785907
52	0x3f437e37	0.76364464
53	0xbe401a30	-0.1875999
54	0xbfd6bdea	-1.6776707
55	0xc0b11ae1	-5.534531
56	0x3ea26005	0.31713882
57	0xc07b9e71	-3.9315455
58	0xbfc3ab5c	-1.528667
59	0xc0be045c	-5.938032
60	0x3e8dbf4a	0.27685004
61	0xc076bbaa	-3.855204
62	0xbfa0ff15	-1.2577845
63	0x3fe518d8	1.7898207
64	0xbfcd55eb	-1.6041845
65	0xbe8053c7	-0.25063917
66	0xbf1152bc	-0.5676687
67	0xc1085591	-8.52089
68	0xbda7c313	-0.08191504
69	0xbffb0332	-1.961035
70	0xbe7b123c	-0.24518675
71	0x3f954720	1.1662331
72	0x3e56510f	0.20929359
73	0xbdf82684	-0.12116721
74	0xbf0d47a8	-0.55187464
75	0xbfe7c4d7	-1.8106946
76	0xbefa7aec	-0.48921907
77	0xbe930bd2	-0.28719956
78	0xc11c4e13	-9.769061
79	0xbfc2dd22	-1.5223734
80	0x3ecba201	0.39772037
81	0xc08b56ba	-4.3543367
82	0xc12f42de	-10.953825
83	0xbfa4ed8b	-1.2884992
84	0x3f2a92fa	0.6663052
85	0xbf8f7d28	-1.121007
86	0xbf34466f	-0.70419973
87	0xc0d6f2c0	-6.7171326
88	0xc0644716	-3.5668387
89	0xbd26231b	-0.040560823
90	0xbd8bf4bb	-0.06833788
91	0xbf49fbd9	-0.78899914
92	0x3d07e4da	0.033177234
93	0xbf568259	-0.83792645
94	0x3d040dbe	0.032239668
95	0x3e1477a9	0.14498772
96	0xbf53d5c1	-0.8274804
97	0xc04dafca	-3.2138543
98	0xbfe64f76	-1.7993
99	0x3d85bef5	0.06530563
100	0xbf0edf97	-0.5580992
101	0x3ef0f222	0.47059733
102	0xc09c5841	-4.885773
103	0xbf3f2faa	-0.74682105
104	0xc00be0ce	-2.185596
105	0x3e7b8769	0.24563374
106	0x3f01a52b	0.5064265
107	0xc09b7870	-4.858452
108	0xc0b0a7fc	-5.520506
109	0xbf77473b	-0.96593064
110	0xbf258a1d	-0.6466387
111	0x3f07498b	0.5284659
112	0xc02436a3	-2.5658348
113	0x3de2dbed	0.11077104
114	0xbdef5f2b	-0.11688074
115	0xc00fe69f	-2.248451
116	0x3f63c583	0.88973254
117	0xbf051f42	-0.5200082
118	0xc0b06c7e	-5.5132437
119	0xbf97a0b1	-1.1845914
120	0x3f811460	1.0084343
121	0xc08c1ed4	-4.378763
122	0xc1051196	-8.316793
123	0xc0ffab07	-7.9896274
124	0xbf86b7c9	-1.0524837
125	0xbeef51e8	-0.46742177
126	0xbcd28eea	-0.025702912
127	0x3ea30267	0.3183777
128	0xc0298f52	-2.6493726
129	0x3ec36e62	0.38170153
130	0x3db45c32	0.08806647
131	0xc01377bf	-2.3041837
132	0x3ff2dc61	1.8973504
133	0xc093978c	-4.6122494
134	0xbf113c19	-0.56732327
135	0xbf988b44	-1.19175
136	0x3f9f8781	1.2463228
137	0xc12a36c4	-10.6383705
138	0xc1307e5f	-11.030852
139	0xc0a41297	-5.1272693
140	0xbfac98e2	-1.3484156
141	0x3e346f85	0.17620666
142	0xc0072857	-2.1118371
143	0xc0e4c22c	-7.1487026
144	0xc005942d	-2.087169
145	0xbf249e92	-0.6430446
146	0x3d6b2bcc	0.057414815
147	0xbf22fdb0	-0.63668346
148	0x3dcfda0f	0.10149013
149	0xbf817691	-1.0114309
150	0xbdf0612e	-0.117372856
151	0x3dc11964	0.09428671
152	0xc02f8514	-2.7424974
153	0x3fb91338	1.445899
154	0x3e852b39	0.2600954
155	0xc083d2e9	-4.119496
156	0x3f705430	0.9387846
157	0xbf887880	-1.0661774
158	0xbffbaf42	-1.966286
159	0xbfc32095	-1.5244318
160	0xbeb1d2ca	-0.34731132
161	0xbd7cf5ba	-0.06175778
162	0xbe6c3492	-0.23066929
163	0xc0da3950	-6.819496
164	0xbd302151	-0.043000523
165	0xbf28ea71	-0.6598273
166	0xbfc23f5d	-1.5175587
167	0xbf73d798	-0.95250845
168	0xbf4f2a7a	-0.8092419
169	0xbf87a44f	-1.0597018
170	0x3d24b973	0.04021592
171	0xbf20131c	-0.6252916
172	0xc02f235e	-2.7365336
173	0x3c31f42d	0.010861439
174	0xc042a956	-3.0415854
175	0xc01fbf8c	-2.496066
176	0xbf8aaae9	-1.0833408
177	0x3eeba169	0.46021584
178	0xbf4c1d0d	-0.7973183
179	0xc01f0cbf	-2.485153
180	0xbcad767f	-0.021174667
181	0xbf188d55	-0.59590656
182	0xbfeb67c6	-1.8391044
183	0xbf3c80c6	-0.7363399
184	0xc0acdcd5	-5.401957
185	0x3ec27e74	0.379871
186	0xbd7c791b	-0.061638933
187	0xbf60226e	-0.87552536
188	0x3fcf338c	1.6187606
189	0xc0f5f64c	-7.6863155
190	0xbc740783	-0.014894369
191	0x3ea4a16c	0.32154405
192	0x3da9657e	0.08271311
193	0xbe04df20	-0.1297574
194	0xbdc6a79a	-0.09699936
195	0xc01332b0	-2.2999687
196	0xc0c22cab	-6.0679526
197	0xbf4d897f	-0.8028793
198	0xbf892cc1	-1.0716783
199	0xbf61ce5c	-0.88205504
200	0xbfab480f	-1.3381366
201	0x3e4a704a	0.19769397
202	0xbe24d5c6	-0.16097173
203	0xbef6294d	-0.48078385
204	0xc0d8b320	-6.771866
205	0xbef47d75	-0.47751966
206	0xbfbfa318	-1.4971647
207	0xc0813694	-4.0379124
208	0xbd9d55bf	-0.076823704
209	0xc0620f8e	-3.5321994
210	0x3ee0faa8	0.43941236
211	0xc03d46f0	-2.9574547
212	0xc0fd7d0e	-7.9215155
213	0xbfa47f0f	-1.2851275
214	0xbe69bf2d	-0.22826834
215	0x3ee1ef59	0.4412792
216	0xbf02534b	-0.50908345
217	0xbec834a7	-0.3910267
218	0xbdd0db60	-0.101980925
219	0xbe79da4a	-0.24399677
220	0xbf2aed8f	-0.66768736
221	0xc0124c09	-2.2858908
222	0x3e5602eb	0.2089955
223	0xbf9467df	-1.1594199
224	0xbfa922c4	-1.3213735
225	0x3d8bce79	0.06826491
226	0xbfbbbc36	-1.4666812
227	0xbf61bca9	-0.881785
228	0x3f9b6c83	1.214249
229	0xc005cfbb	-2.0908039
230	0xbf72daf0	-0.9486532
231	0xc0a6a3b1	-5.207482
232	0xc0224a63	-2.5357902
233	0x3f05dcbb	0.5228993
234	0xbfcdf61f	-1.6090735
235	0x3c883a13	0.016629254
236	0xc059d3d1	-3.4035532
237	0xbe8da012	-0.27661186
238	0xbf8015fd	-1.000671
239	0xbfe3ca15	-1.7796046
240	0xc0f064eb	-7.512319
241	0x3eb5c28d	0.35499993
242	0xbec7ad49	-0.38999394
243	0xbebe67fd	-0.37188712
244	0xbfdfdbc1	-1.7488939
245	0xbe2836cc	-0.16427153
246	0xbff1f38b	-1.8902448
247	0xc05451ca	-3.317492
248	0xbf89c792	-1.0764029
249	0x3fd45936	1.6589725
250	0xbf338b99	-0.70134884
251	0xbf9b1c73	-1.2118057
252	0x3f8f3406	1.1187751
253	0xc0c0c4c5	-6.0240197
254	0xbf7b6f09	-0.982163
255	0xc0a2aff4	-5.0839787

l3.bias f4 [100]
0	0xc033d47d	-2.8098443
1	0x3e0b9579	0.13631238
2	0xbfcd6af0	-1.604826
3	0xc006a9a4	-2.104104
4	0x3f23f4b5	0.6404527
5	0xc095cc0a	-4.681157
6	0xbfc319df	-1.524227
7	0x3e363719	0.17794456
8	0xbfdf5680	-1.7448273
9	0xc0218d03	-2.5242317
10	0xbeb42000	-0.35180664
11	0x3e0dccc1	0.13847639
12	0xc04293d9	-3.040274
13	0xc0258cc8	-2.5867176
14	0xbfc11482	-1.5084383
15	0xc07d8c5c	-3.9616919
16	0xbfacc46a	-1.3497441
17	0xbea39af5	-0.3195416
18	0x3f124e87	0.57151073
19	0xc0055d8a	-2.0838342
20	0xc03ab7e5	-2.917474
21	0xbffebc50	-1.9901218
22	0xc0af3d2f	-5.4762187
23	0xbf989ebd	-1.1923443
24	0xbf983743	-1.1891865
25	0xc01e5baa	-2.4743447
26	0xc02458f6	-2.5679297
27	0xbd618d47	-0.055066373
28	0xc0504fa1	-3.2548602
29	0xc064e609	-3.5765402
30	0xc0396ce9	-2.8972723
31	0xc00e71bd	-2.225692
32	0xc08f78b2	-4.4834833
33	0x3e24bcec	0.16087693
34	0xc053247f	-3.2991025
35	0xbfb95921	-1.4480325
36	0xbf3cef0a	-0.73802245
37	0xbea2ab6a	-0.31771404
38	0xc08ca0a3	-4.394609
39	0xc0036111	-2.0527995
40	0x40034bc1	2.0514987
41	0xbf1dac3c	-0.61590934
42	0xc001dd52	-2.0291333
43	0xbfdb354d	-1.7125641
44	0xbedd2d65	-0.43198696
45	0xbfcddcd0	-1.6083012
46	0x3f470870	0.7774725
47	0xc0058e55	-2.0868123
48	0xc0059e44	-2.0877848
49	0xc072b637	-3.7923715
50	0xbf803b35	-1.0018069
51	0xc03b9470	-2.930935
52	0x3f432e6a	0.762427
53	0x3f0bf8b1	0.5467635
54	0xbf958571	-1.1681348
55	0xc00e341c	-2.2219305
56	0xc06bf629	-3.6868994
57	0xbfba108a	-1.4536297
58	0xc03c324d	-2.94057
59	0xbee9cbad	-0.45663205
60	0xc001d411	-2.0285685
61	0xbf52d67d	-0.82358533
62	0xc064eda8	-3.5770054
63	0xc05941a6	-3.3946319
64	0xbfe2d8b5	-1.7722384
65	0xc033449b	-2.8010623
66	0xbf8ef085	-1.1167151
67	0xc0169439	-2.3527968
68	0x3cda28b3	0.026630735
69	0x3e19a8dd	0.15005822
70	0x3f1e941f	0.61944765
71	0xbfe40995	-1.7815424
72	0x3f5cae16	0.86203134
73	0x3ef5de38	0.48021102
74	0xbdc920ab	-0.09820684
75	0x3f79de01	0.97604376
76	0xc017fa86	-2.3746657
77	0xbfcb0a9e	-1.5862615
78	0xbf5c753d	-0.8611639
79	0xc02a9036	-2.665052
80	0xc04a839d	-3.164283
81	0x3e7a783f	0.24459933
82	0xbf05eb63	-0.52312297
83	0xbf899cd5	-1.0750986
84	0xc071b41a	-3.7766175
85	0xc03abf2e	-2.9179187
86	0xc001e6bd	-2.0297081
87	0xbfdb82e4	-1.714932
88	0x3d850eb8	0.06496948
89	0xc002ee4b	-2.0457942
90	0xc033a944	-2.8072062
91	0xc02cdec3	-2.7010963
92	0xc021fe55	-2.5311482
93	0xc01c658f	-2.4436986
94	0xc049ac10	-3.1511269
95	0xc015a605	-2.338258
96	0xc0434b93	-3.0514877
97	0xc007302a	-2.1123147
98	0xbe30bd3f	-0.17259692
99	0xc00dc1a8	-2.2149448
