code/try_yt_torch/data_torch.pth (torch, 19750 bytes, 6 tensors)

l1.weight f4 [8, 279]
0.040893506 1.82898 0.82738656 -0.19628116 -0.5790733 0.82560444 1.1686927 1.8815213
-1.383787 1.1233795 -0.18766375 0.0509041 -0.6714623 0.98164797 0.027894402 1.2938322
-0.503388 -0.26124284 0.20867963 0.086398035 0.2273541 2.2682452 1.5130168 1.4068966
-0.43207332 0.55226874 -0.51736575 0.37837788 0.21295172 -0.61368144 -0.71174353 0.99822015
1.2785188 -0.2142584 -0.011991903 -0.055072017 0.100688145 0.27200374 -0.72596717 0.91537774
0.12397806 0.5633412 0.50525075 1.2500513 0.85140955 1.8130513 -1.3467361 0.23522288
0.007064696 -0.070060566 2.1343691 1.9873645 0.75755906 0.15091318 -0.4075472 0.0629552
0.025793582 -0.27169207 1.3183819 0.5672621 0.9796035 0.33018947 0.795264 0.41867122
-0.41875553 0.65873235 0.9509015 1.0514588 -0.73602426 0.5466744 0.42958498 0.47534308
0.7986193 1.7089177 -0.5999916 0.8339572 -0.52256763 0.050060917 -0.12526026 -0.59453887
-0.29696366 -0.44277972 2.3583171 0.32858783 -0.45098984 -0.26870897 -0.41699466 0.018410973
0.41020653 -0.3674004 0.85174656 0.87403995 0.13138719 -0.23954387 0.35774615 1.1776637
-1.0725303 0.6243144 -0.78248143 -1.1477755 0.6061422 0.35064974 -0.29091546 1.647177
0.9486397 -0.19167128 0.53407717 0.854554 0.08090375 0.9611941 0.9347056 -0.26847586
0.88434047 0.7182941 0.8611531 1.7834398 0.78714275 0.07055712 -1.0739936 0.35015732
0.03760321 -1.857778 -0.61729443 -0.048176087 -0.06319568 0.20463572 0.10218751 0.91429514
-0.13199383 0.29618835 0.9619896 0.9315305 0.7209859 -0.9790754 -0.3503356 1.2446644
0.5020483 0.047481924 -0.39274704 1.7749472 0.11304963 -0.38576752 -0.06666034 0.4235368
0.72011286 0.20027946 0.009341048 0.5513373 0.15810819 1.1968831 0.09820307 -0.6727058
1.7736493 0.76768297 1.200757 0.41822395 -0.40746704 2.1830885 -1.7822515 0.17520334
-0.1078802 -0.4874619 -0.4471889 -0.22871841 -0.28140572 -0.47064713 -0.2077863 -0.003518066
-0.53597224 -0.42811227 -0.15919827 0.8966013 -0.5743968 -0.0861433 0.5650715 -0.74184626
0.73448133 0.58599836 1.1209607 0.2939646 0.14950572 -0.24582122 -0.79960644 0.03449268
-0.46902645 -0.99738467 -1.4662908 0.49019915 0.6269173 0.3172984 -0.05596583 0.19020075
0.07192481 -0.5352842 0.08110459 -0.5984833 0.67871237 -0.40466842 0.73542 0.997856
-1.42021 -1.0296046 -1.0965058 -0.8755077 0.95605266 -0.035883665 0.42749652 0.83191216
-0.4947416 0.4195388 1.0151718 0.7336198 -0.4597466 -0.40814662 -1.2301714 1.1086681
0.42729566 0.27661866 0.09857121 0.7111432 0.7396282 0.92779267 0.6570776 1.5329005
0.96214044 0.14175318 -0.8229124 -0.03994851 0.5376335 0.56304103 -1.1701733 1.4061319
-0.2032544 -0.7681975 -0.81313485 -0.76971376 -0.3988371 -0.4300561 -0.42982337 -0.41321054
0.5593644 0.79506946 -0.45708355 -0.5356344 -0.4540006 -0.8358574 -0.37166065 0.67420876
-0.12964524 -0.39815015 0.5493708 0.01564168 -1.1899654 0.024189653 0.99836963 -0.035800863
00000000: f37f 273d 041c ea3f 9bcf 533f eefd 48be
00000010: 263e 14bf d05a 533f b997 953f b1d5 f03f
00000020: ef1f b1bf e6ca 8f3f ed2a 40be d180 503d
00000030: f4e4 2bbf 484d 7b3f cd82 e43c 4b9c a53f
00000040: 09de 00bf 9fc1 85be 1db0 553e 74f1 b03d
00000050: 83cf 683e ee2a 1140 89aa c13f 3015 b43f
00000060: b738 ddbe 7c61 0d3f 1572 04bf bfba c13e
00000070: 0410 5a3e 3a1a 1dbf d334 36bf 5b8b 7f3f
00000080: 81a6 a33f 8e66 5bbe b079 44bc 3293 61bd
00000090: 9635 ce3d 1344 8b3e fcd8 39bf 3256 6a3f
000000a0: 36e8 fd3d 2137 103f 1d58 013f ae01 a03f
000000b0: faf5 593f 1112 e83f d961 acbf 44de 703e
000000c0: f77e e73b ea7b 8fbd 8199 0840 f661 fe3f
000000d0: 64ef 413f fc88 1a3e 07aa d0be a8ee 803d
000000e0: 104d d33c 391b 8bbe bdc0 a83f 1738 113f
000000f0: 4cc7 7a3f 980e a93e 6c96 4b3f 135c d63e
00000100: 2067 d6be afa2 283f 486e 733f 3496 863f
00000110: 166c 3cbf daf2 0b3f 90f2 db3e 2b60 f33e
00000120: 5072 4c3f d1bd da3f 0d99 19bf 387e 553f
00000130: fec6 05bf ad0c 4d3d 3a44 00be b333 18bf
00000140: 9f0b 98be 06b4 e2be abee 1640 aa3c a83e
00000150: 24e8 e6be 3994 89be 5380 d5be 9cd2 963c
00000160: 9706 d23e e81b bcbe 100c 5a3f 15c1 5f3f
00000170: 5d8a 063e fd4a 75be 812a b73e afbd 963f
00000180: ac48 89bf 12d3 1f3f b450 48bf 4fea 92bf
00000190: 232c 1b3f 5d88 b33e dff2 94be b2d6 d23f
000001a0: 0dda 723f 7a45 44be 48b9 083f 0dc4 5a3f
000001b0: deb0 a53d d110 763f de48 6f3f ab75 89be
000001c0: 2364 623f 1fe2 373f 8874 5c3f c147 e43f
000001d0: 3082 493f 4080 903d 9f78 89bf d247 b33e
000001e0: d305 1a3d abcb edbf 0207 1ebf 4a54 45bd
000001f0: bd6c 81bd 078c 513e af47 d13d 3f0f 6a3f
00000200: 6429 07be 00a6 973e f344 763f c878 6e3f
00000210: 8892 383f afa4 7abf 305f b3be 2a51 9f3f
00000220: 3d86 003f 687c 423d 2416 c9be 7831 e33f
00000230: 9086 e73d 5283 c5be 3785 88bd d1d9 d83e
00000240: 5159 383f 0f16 4d3e 320b 193c 7124 0d3f
00000250: 1de7 213e 7733 993f b11e c93d 7336 2cbf
00000260: f106 e33f df86 443f 68b2 993f 7321 d63e
00000270: 859f d0be b9b7 0b40 d120 e4bf 8168 333e
00000280: 4bf0 dcbd 9b94 f9be f2f5 e4be 2935 6abe
00000290: 6914 90be a9f8 f0be efc5 54be 5a8f 66bb
000002a0: 7a35 09bf 8831 dbbe df04 23be aa87 653f
000002b0: ab0b 13bf e66b b0bd 87a8 103f a3e9 3dbf
000002c0: f806 3c3f fd03 163f a47b 8f3f 8782 963e
000002d0: 0718 193e 8fb8 7bbe 02b3 4cbf 3248 0d3d
000002e0: 3c24 f0be 9a54 7fbf 6baf bbbf 62fb fa3e
000002f0: a77d 203f f074 a23e 6d3c 65bd fcc3 423e
00000300: 514d 933d 6308 09bf 2a1a a63d 3436 19bf
00000310: 18c0 2d3f b330 cfbe 7c44 3c3f 7e73 7f3f
00000320: 71c9 b5bf 15ca 83bf 4d5a 8cbf 4621 60bf
00000330: debf 743f c0fa 12bd d3e0 da3e 32f8 543f
00000340: c54e fdbe cacd d63e 26f1 813f 82ce 3b3f
00000350: e863 ebbe 98f8 d0be 4276 9dbf d6e8 8d3f
00000360: 7fc6 da3e f6a0 8d3e b4df c93d 7b0d 363f
00000370: 4658 3d3f d283 6d3f 3d36 283f 1536 c43f
00000380: d64e 763f bf27 113e 63aa 52bf 0ca1 23bd
00000390: 59a2 093f 7523 103f 3dc8 95bf 21fc b33f
000003a0: ec21 50be 97a8 44bf 9b29 50bf f60b 45bf
000003b0: 6034 ccbe 5030 dcbe cf11 dcbe 5590 d3be
000003c0: 8132 0f3f ac89 4b3f db06 eabe 561f 09bf
000003d0: c472 e8be c0fa 55bf 4e4a bebe f298 2c3f
000003e0: b9c1 04be 56da cbbe 91a3 0c3f fb22 803c
000003f0: c950 98bf 6129 c63c 2795 7f3f eda3 12bd

l1.bias f4 [8]
1.6326474 0.87094104 0.8590349 0.5183931 0.6566183 1.1296742 0.5603607 1.4072553
00000000: 97fa d03f fef5 5e3f b6e9 5b3f 69b5 043f
00000010: 2318 283f 2a99 903f cd73 0f3f f120 b43f

l2.weight f4 [8, 8]
-0.15359296 0.377513 2.2502363 0.29197168 2.7329721 -0.28809202 0.7062197 0.13851348
-0.008347039 0.2705425 -0.9789154 2.4248648 -1.4859669 1.3060877 1.8601665 0.5587111
1.843116 2.1808002 -0.09496654 0.65480864 2.3784177 -0.15646155 0.04267682 -1.3712736
2.5097435 -0.5211424 -0.5796971 -1.5862318 -0.4766282 3.148242 0.79172796 -0.12392084
-0.12104145 -0.17310317 0.20244405 -0.33200264 -0.25963053 -0.16128574 -0.08498275 -0.276582
0.43397635 -0.34357995 3.366458 0.19512615 -0.9881495 -0.6714394 0.41490382 3.931846
1.3961513 -2.7107785 1.8399807 2.5368874 0.4249233 0.14833999 -0.3776899 -0.9235435
-1.4452997 -2.6947763 -0.51947397 1.1484804 2.8072278 0.0048071286 2.8672473 0.9467256
00000000: 7947 1dbe 6249 c13e df03 1040 507d 953e
00000010: 04e9 2e40 cc80 93be d0ca 343f 7ad6 0d3e
00000020: 05c2 08bc 8c84 8a3e 339a 7abf fc30 1b40
00000030: 2a34 bebf e22d a73f f019 ee3f b107 0f3f
00000040: 3aeb eb3f 3b92 0b40 d17d c2bd 8aa1 273f
00000050: ff37 1840 7537 20be e4cd 2e3d e585 afbf
00000060: a39f 2040 9769 05bf 0767 14bf a509 cbbf
00000070: 9d08 f4be cc7c 4940 afae 4a3f 36ca fdbd
00000080: 94e4 f7bd f541 31be 7e4d 4f3e 40fc a9be
00000090: 4bee 84be 1728 25be 700b aebd 289c 8dbe
000000a0: 2632 de3e b6e9 afbe 0c74 5740 26cf 473e
000000b0: 5ef7 7cbf 74e3 2bbf 466e d43e 5da3 7b40
000000c0: 16b5 b23f 657d 2dc0 7d84 eb3f 5d5c 2240
000000d0: 8c8f d93e 70e6 173e 9260 c1be 596d 6cbf
000000e0: 95ff b8bf 3777 2cc0 3ffc 04bf 6801 933f
000000f0: 9fa9 3340 1e85 9d3b fb80 3740 9c5c 723f

l2.bias f4 [8]
-1.5880619 -0.84882414 0.7644832 1.007233 -0.109764844 1.816245 0.057908654 0.38644472
00000000: 9d45 cbbf 8a4c 59bf 2cb5 433f 03ed 803f
00000010: 64cc e0bd b77a e83f a031 6d3d 15dc c53e

l3.weight f4 [80, 8]
0.375146 -4.8782873 -0.866902 -0.4953523 0.32152435 0.33365414 0.42035994 0.19809313
-5.1965704 0.34953013 -0.93185896 0.2958628 -0.010223478 -1.2669969 0.037660554 0.7999553
-0.16042732 -0.2969049 -0.09509667 0.24387625 0.29896143 -2.5193467 0.43207827 -2.7194576
0.3727852 -2.027516 0.19879264 -0.58265394 -0.13369107 -4.101745 0.10763347 0.41397002
-0.45808497 -0.3471693 -2.0314872 0.29585174 0.041822582 0.23609002 -0.2856536 0.47119975
1.0991429 -4.1124105 0.42402005 -0.9154923 0.10114372 -0.28152528 -1.8897932 -1.9383259
-2.5552206 -0.6299287 -0.41955632 0.9976751 0.14753452 -3.6374016 0.93119335 -1.7367201
-0.36436868 -2.74494 -4.700737 0.35565355 -0.04274136 1.2170987 0.68772423 -1.1094902
-0.35232353 0.5066451 -0.7599733 0.14712189 0.21559182 -1.0640916 -1.2209938 -0.18831022
-1.8429978 1.3469678 -3.8819075 -0.716069 -0.21859504 -0.7442069 -0.07897002 0.6110024
-2.136029 0.15782566 -0.05265984 1.030206 -0.27794343 -4.0346694 -2.8742044 -0.412419
0.5083568 -6.0190015 -0.26043817 -0.51505286 0.08114609 0.81629634 -0.6302665 -3.7961733
-4.4074016 -2.69642 -0.3218988 0.27712294 0.19305328 0.48056245 1.1798828 -2.7640889
-2.3996596 -1.7298754 -3.486053 -0.8279339 -0.32324404 1.3699585 -3.2941492 0.5601759
0.63503253 -0.3979661 0.5420826 -3.5255098 0.33627614 -0.8175262 -2.495475 -0.992018
-0.01795153 -1.4774904 0.33506027 0.68535733 0.2554045 -3.7008934 -1.9506432 -2.4680238
-0.049692716 -0.10166782 0.2853202 -0.40615076 -0.121835664 -4.9493318 0.08429185 -2.7193139
0.08622367 -1.5061444 -5.2043195 -0.64348465 -0.19837776 0.6268172 -3.412949 1.28939
-3.405479 -0.23218115 -0.7642428 0.0041754893 -0.061974734 0.8893306 -3.9154902 -2.300551
0.95504713 -3.7857773 -0.3849606 -4.53744 -0.12674274 1.0055665 -3.2253375 -1.8104835
-0.054401938 -0.9051196 0.27141425 -0.9350053 0.21001485 -3.3908186 0.6765211 -0.3185147
-0.45276228 0.22223817 0.0016762472 -3.2439039 0.20970306 -0.5658021 0.13501813 0.0139577715
0.975725 -4.0570717 -3.8187273 -2.4604585 -0.109757766 1.2861072 -1.333968 -0.802797
0.5830731 -3.1967928 0.31305107 -2.613714 -0.10210323 -0.7710379 0.51826006 -1.163286
-0.24697447 0.76754737 -0.30003688 -1.6502883 0.053985655 -0.3231687 -2.3507476 -0.5208064
0.21200924 -0.03561734 0.25398606 -3.416704 -0.21149841 -1.2835567 0.48678645 -2.4250302
-1.1285493 -1.2906758 0.58967316 -2.293998 -0.28168845 0.82203484 -2.4640734 -1.5953279
-0.02242693 0.4988139 -0.390897 -2.2204392 -0.006524503 -3.8473349 0.2681575 0.60728556
0.17988382 -0.22419503 0.26464343 -1.9036943 -0.0004221499 -2.9296753 -2.8304148 0.83743936
-2.3834605 -2.7879846 1.0823423 0.8924326 0.21433273 -2.3618114 -2.6435797 -0.87746686
-3.4112608 -3.631382 0.38952658 0.80070883 0.23250505 0.27884594 -2.8172688 -2.3195505
-0.4822988 -2.7387009 0.31604284 0.73525906 0.26102516 -2.7958965 0.3992779 -2.1064274
00000000: 2313 c03e ee1a 9cc0 4aed 5dbf d19e fdbe
00000010: d79e a43e b7d4 aa3e 6b39 d73e edd8 4a3e
00000020: 4e4a a6c0 9df5 b23e 4f8e 6ebf 547b 973e
00000030: 6080 27bc f42c a2bf f441 1a3d dfc9 4c3f
00000040: 0f47 24be eb03 98be 0bc2 c2bd b2ba 793e
00000050: 7911 993e fa3c 21c0 5d39 dd3e 980b 2ec0
00000060: b4dd be3e d2c2 01c0 4c90 4b3e cf28 15bf
00000070: 50e6 08be 7f41 83c0 f06e dc3d e1f3 d33e
00000080: 1d8a eabe 2dc0 b1be e303 02c0 e179 973e
00000090: 284e 2b3d 95c1 713e 3041 92be 1841 f13e
000000a0: b7b0 8c3f de98 83c0 2819 d93e b45d 6abf
000000b0: 7024 cf3d 1524 90be bee4 f1bf 101b f8bf
000000c0: bc88 23c0 0243 21bf 16d0 d6be a367 7f3f
000000d0: 4a13 173e 30cb 68c0 b062 6e3f d84c debf
000000e0: 888e babe 19ad 2fc0 706c 96c0 3918 b63e
000000f0: 9011 2fbd e4c9 9b3f b20e 303f c603 8ebf
00000100: c063 b4be 7eb3 013f 9c8d 42bf 1fa7 163e
00000110: 1ac4 5c3e 2734 88bf 8649 9cbf 65d4 40be
00000120: 5ae7 ebbf 7169 ac3f 2c71 78c0 4c50 37bf
00000130: 61d7 5fbe 5884 3ebf 09bb a1bd a76a 1c3f
00000140: b3b4 08c0 0d9d 213e d8b1 57bd cadd 833f
00000150: 9a4e 8ebe 031c 81c0 f7f2 37c0 9528 d3be
00000160: ac23 023f a99b c0c0 2758 85be 81da 03bf
00000170: ec2f a63d ccf8 503f 2559 21bf 81f4 72c0
00000180: 6f09 8dc0 2592 2cc0 ebcf a4be 0fe3 8d3e
00000190: c2af 453e 480c f63e 6606 973f d5e6 30c0
000001a0: 0694 19c0 8f6c ddbf 7e1b 5fc0 7af3 53bf
000001b0: 3e80 a5be cd5a af3f 57d3 52c0 b067 0f3f
000001c0: 7e91 223f 36c2 cbbe edc5 0a3f f4a1 61c0
000001d0: 632c ac3e 6649 51bf ddb5 1fc0 e4f4 7dbf
000001e0: 160f 93bc 681e bdbf 058d ab3e 9473 2f3f
000001f0: 61c4 823e 70db 6cc0 adae f9bf 1af4 1dc0
00000200: 978a 4bbd 3837 d0bd 7d15 923e fef2 cfbe
00000210: fa84 f9bd ed60 9ec0 35a1 ac3d 3d09 2ec0
00000220: 0996 b03d 57c9 c0bf c989 a6c0 69bb 24bf
00000230: 8a23 4bbe 1877 203f c26d 5ac0 bb0a a53f
00000240: 5ef3 59c0 e5c0 6dbe 6ba5 43bf 8bd2 883b
00000250: 38d9 7dbd 2cab 633f 6497 7ac0 3a3c 13c0
00000260: f87d 743f 2d4a 72c0 8e19 c5be b532 91c0
00000270: d9c8 01be 67b6 803f ee6b 4ec0 ecbd e7bf
00000280: 91d4 5ebd ebb5 67bf cff6 8a3e 825c 6fbf
00000290: 220e 573e 2c03 59c0 7d30 2d3f 5c14 a3be
000002a0: 75d0 e7be 6792 633e 86b5 db3a 1f9c 4fc0
000002b0: 66bc 563e 68d8 10bf 3142 0a3e 23af 643c
000002c0: 1dc9 793f 88d3 81c0 0766 74c0 2778 1dc0
000002d0: aec8 e0bd 299f a43f 77bf aabf 1b84 4dbf
000002e0: 4744 153f 4198 4cc0 3b48 a03e 1747 27c0
000002f0: 801b d1bd bd62 45bf b1ac 043f 8ee6 94bf
00000300: e0e6 7cbe fc7d 443f 6f9e 99be a63c d3bf
00000310: 1020 5d3d 5e76 a5be a672 16c0 9153 05bf
00000320: f318 593e 7de3 11bd 760a 823e 47ab 5ac0
00000330: 0a93 58be 964b a4bf 133c f93e b233 1bc0
00000340: 4e74 90bf dd34 a5bf d2f4 163f ddd0 12c0
00000350: 7839 90be e070 523f 61b3 1dc0 b433 ccbf
00000360: aeb8 b7bc 8964 ff3e a723 c8be ad1b 0ec0
00000370: 80cb d5bb bc3a 76c0 f14b 893e 1177 1b3f
00000380: 7733 383e 6293 65be 587f 873e 41ac f3bf
00000390: 0054 ddb9 cd7f 3bc0 8425 35c0 6d62 563f
000003a0: 9e8a 18c0 576e 32c0 318a 8a3f 7676 643f
000003b0: 0a7a 5b3e eb27 17c0 6930 29c0 aba1 60bf
000003c0: 1952 5ac0 9068 68c0 0770 c73e 41fb 4c3f
000003d0: ce15 6e3e e5c4 8e3e 224e 34c0 8473 14c0
000003e0: deef f6be e046 2fc0 5ed0 a13e f039 3c3f
000003f0: 17a5 853e f8ef 32c0 276e cc3e b5cf 06c0

l3.bias f4 [80]
-0.5240599 0.4254366 -0.53186303 -0.15041497 -0.43778026 0.6905272 -0.32325345 0.43159178
-1.5445273 -0.4114246 0.5922629 0.33834025 0.16008963 0.9132413 0.4691641 -0.34283063
-0.35123545 0.29642904 0.65769637 0.62670743 -0.30527997 -0.6414508 0.7989217 -0.30172595
0.19219014 0.021322966 0.84622234 -0.19610773 0.29295212 0.8823962 0.7624242 0.09542919
0.37916547 0.003130473 0.700326 0.4169503 -0.08243844 -0.9473791 -0.091501616 -0.1158974
0.16685283 -0.09453602 -0.17639302 0.017816164 0.43116656 -0.4173622 -0.31983057 0.10737955
-0.25543004 0.1686626 0.14817673 -0.72724664 0.5725328 0.39338017 -0.16217162 0.36628246
-0.5056855 0.36071935 0.19367613 -0.03006061 0.9984941 -1.0955299 0.77934253 -0.8013376
0.060225185 -1.0812701 0.19021781 0.33149165 -1.557365 -1.1667094 -1.0308661 0.08031384
-0.1540874 0.6371833 -0.2685116 -0.26124492 -0.24553305 0.44890594 -1.0470766 -0.43611425
00000000: ca28 06bf d3d2 d93e 2d28 08bf 6206 1abe
00000010: bc24 e0be 64c6 303f 7a81 a5be 99f9 dc3e
00000020: 12b3 c5bf 3fa6 d2be 8b9e 173f ef3a ad3e
00000030: 89ee 233e 2fca 693f 4736 f03e 7f87 afbe
00000040: 22d5 b3be 8cc5 973e ca5e 283f e66f 203f
00000050: a84d 9cbe 1f36 24bf 2286 4c3f d37b 9abe
00000060: 7ecd 443e 80ad ae3c 07a2 583f 77d0 48be
00000070: d2fd 953e b8e4 613f 3b2e 433f 6170 c33d
00000080: fa21 c23e 9f28 4d3b 9148 333f 827a d53e
00000090: 7cd5 a8bd 7087 72bf 3365 bbbd 9e5b edbd
000000a0: 78db 2a3e 1a9c c1bd 5fa0 34be 34f3 913c
000000b0: ddc1 dc3e 80b0 d5be d5c0 a3be cfe9 db3d
000000c0: bac7 82be e3b5 2c3e a4bb 173e d62c 3abf
000000d0: 8291 123f 2069 c93e 5110 26be 6089 bb3e
000000e0: 9b74 01bf 35b0 b83e 0953 463e ab41 f6bc
000000f0: 4f9d 7f3f 533a 8cbf fe82 473f 7624 4dbf
00000100: afae 763d 0f67 8abf 75c8 423e 46b9 a93e
00000110: bc57 c7bf bc56 95bf 6cf3 83bf 957b a43d
00000120: 16c9 1dbe 721e 233f 5a7a 89be e5c1 85be
00000130: 046d 7bbe 00d7 e53e 9b06 86bf 5e4a dfbe
